Sem_4/DS-207-Intro-NLP/Assignments/A-2/Assignment-2/fnn/model.pt (torch, 512308 bytes, 6 tensors)

emb.weight f4 [29, 200]
0	0x3ff6a529	1.9269153
1	0x3fbe5f53	1.4872841
2	0x3f669567	0.9007172
3	0xc006c0db	-2.105521
4	0x3f2dacd5	0.67841846
5	0xbf9e0591	-1.2345449
6	0xbd306786	-0.043067478
7	0xbfcd65ba	-1.604667
8	0xbf408bf0	-0.7521353
9	0x3fd3095b	1.648723
10	0xbec8f2f6	-0.39247864
11	0xbfb3a966	-1.4036071
12	0xbf3a566e	-0.7278813
13	0xbf0f36d1	-0.5594302
14	0xbf44d2a0	-0.7688389
15	0x3f432f9f	0.7624454
16	0x3fd23771	1.6423169
17	0xbe236d85	-0.15959747
18	0xbefeaae4	-0.49739754
19	0x3ee111d8	0.43958926
20	0xbf4214e2	-0.75813115
21	0x3f8a0650	1.0783176
22	0x3f4d0144	0.80080056
23	0x3fd71e93	1.6806206
24	0x3fa3ba59	1.2791244
25	0x3fa5f12f	1.2964228
26	0x3f1c4788	0.6104665
27	0x3faad8b0	1.3347378
28	0xbe6d2eed	-0.23162432
29	0x3d2b0c00	0.04175949
30	0xbe80ce7a	-0.2515753
31	0x3f5c1fb0	0.8598585
32	0xbfb13cfd	-1.3846737
33	0xbf5f0955	-0.87123615
34	0xbe64ba09	-0.22336592
35	0x3fdbd280	1.7173615
36	0x3ea34448	0.31888032
37	0xbed95a8d	-0.42451897
38	0x3e9c8774	0.30572093
39	0xbf464bb2	-0.7745925
40	0xbfc75e89	-1.5575725
41	0x3f7ee202	0.9956361
42	0xbf6139a5	-0.87978584
43	0xbf19e472	-0.60114205
44	0xbfa31763	-1.2741512
45	0x4007dbb6	2.122785
46	0xbf9e091d	-1.2346531
47	0xbef9cfd9	-0.48791388
48	0xbf69f04e	-0.913823
49	0xbf287baf	-0.65813726
50	0x3d9fcafb	0.07802387
51	0x3f069b67	0.52580875
52	0xbef9da0d	-0.48799172
53	0x3f987ec8	1.191369
54	0xbf5062ce	-0.81400764
55	0xbf3c6a06	-0.7359928
56	0xbfb39da0	-1.4032478
57	0x3d137895	0.036003668
58	0xbd82005f	-0.06347727
59	0x3f2cf519	0.6756149
60	0xbdc84efb	-0.09780689
61	0x3fec1ba8	1.844594
62	0xbf979eec	-1.1845374
63	0x3fb11825	1.3835493
64	0x3fb8fa25	1.4451338
65	0x3f5b3dda	0.85641253
66	0x400df4f4	2.2180758
67	0x3f05ee2d	0.5231655
68	0x3eb17bac	0.34664667
69	0xbe4a1141	-0.19733144
70	0xbf86fcc5	-1.0545889
71	0x3fa3955c	1.2779956
72	0xbe30529c	-0.17219013
73	0x3f061700	0.52378845
74	0x3d67ec48	0.05662182
75	0x3eda437d	0.42629614
76	0x3f133388	0.57500505
77	0xbf244808	-0.6417241
78	0xc00d35a2	-2.2063985
79	0xbf4034a1	-0.75080305
80	0x3c32104d	0.010868144
81	0xbead6fa3	-0.33874235
82	0xbfab9b63	-1.3406795
83	0xbf15dad8	-0.58537054
84	0x3f0943a0	0.5361881
85	0x3f064dab	0.5246226
86	0x3f9212e5	1.1412016
87	0x3d53883c	0.051643595
88	0x3f3e73a3	0.743952
89	0xbef6923b	-0.4815844
90	0xbf8654e8	-1.0494661
91	0x3f1a991d	0.6038988
92	0xbfdc742a	-1.722295
93	0xbf53e8a9	-0.82776886
94	0x3faad78c	1.334703
95	0x3ef79276	0.48353928
96	0xc0209c60	-2.5095444
97	0x3ef9db46	0.48800105
98	0x3f48daaf	0.78458685
99	0x3ceaad81	0.028647186
100	0x3f24088a	0.6407553
101	0x3f154fb4	0.5832474
102	0x3f88910e	1.0669267
103	0xbee67a81	-0.45015338
104	0xbe3db6c2	-0.18526748
105	0x3f40b4ce	0.75275886
106	0x3ecf3c6a	0.4047578
107	0x3e36bfca	0.17846599
108	0x3e87a238	0.2649095
109	0x3fa2f72e	1.2731683
110	0xbaabd149	-0.0013108636
111	0xbe9b71f4	-0.30360377
112	0xbfba7fee	-1.4570291
113	0xbdd19523	-0.10233524
114	0xbf196218	-0.59915304
115	0x3ef440bd	0.4770564
116	0x3f39e6c0	0.7261772
117	0x3dbaadd4	0.09115186
118	0xbec7338e	-0.3890652
119	0x3f072589	0.5279165
120	0xbc4fd6c1	-0.012685479
121	0x3e769dcc	0.24083632
122	0x3e07b75a	0.13253537
123	0x3f43a546	0.7642406
124	0x3f8c2947	1.0950097
125	0x3eae0630	0.33989096
126	0x3f384fca	0.7199675
127	0x3ed2a405	0.41140762
128	0x3ff73045	1.9311606
129	0x3f8184c1	1.0118638
130	0xbfb7dc2b	-1.4364065
131	0xbf909f3f	-1.1298598
132	0xbe0b4ca3	-0.13603453
133	0x3fd1551a	1.6354096
134	0x3f279d17	0.65474075
135	0x3f137509	0.57600456
136	0x3f921cef	1.141508
137	0x3c9814bd	0.018564576
138	0xbfe7249f	-1.8058051
139	0x3f6ce94d	0.9254349
140	0xbec02d23	-0.37534437
141	0x3f843c35	1.0330874
142	0xbf2fc85b	-0.68665093
143	0x3f230638	0.63681364
144	0xbf790128	-0.9726739
145	0x3f755d7d	0.95845777
146	0x3fcf41f6	1.6192005
147	0x3fb9ad95	1.4506098
148	0x3e89f97c	0.26948154
149	0xbe576ccd	-0.21037598
150	0xbf3b98f6	-0.73280275
151	0x3dd59a1a	0.10429783
152	0x3eb28f95	0.3487517
153	0x3f77b440	0.96759415
154	0xbeee6eb7	-0.46568844
155	0x3fcd69ff	1.6047972
156	0xc01eba4a	-2.4801202
157	0xbed5c84b	-0.41754374
158	0xbf9904a1	-1.1954538
159	0x3f4ff550	0.8123369
160	0xbff34554	-1.9005532
161	0x3e6a0ff7	0.22857653
162	0x3ccba5f3	0.024859404
163	0xbeb12064	-0.34595025
164	0x3e92dbc0	0.2868328
165	0xbf3b187d	-0.7308424
166	0x3e330415	0.17482026
167	0xbf8c05e0	-1.0939293
168	0xbfcd1397	-1.6021603
169	0x3fad2bba	1.3528969
170	0x3fa4f84e	1.2888277
171	0x3d5633c7	0.052295472
172	0xbfc5ff32	-1.5468504
173	0x3f41b77d	0.75670606
174	0x3f468872	0.7755195
175	0x4001b2c2	2.0265355
176	0x3d12b57d	0.035817612
177	0x3df6f739	0.12058873
178	0xbf4e3ffa	-0.8056637
179	0xbe548f05	-0.20757683
180	0xbf6e9422	-0.9319478
181	0xbfcba4c8	-1.5909662
182	0xbf9167a7	-1.1359757
183	0xbf05c8f5	-0.5225976
184	0xbf04ce54	-0.5187733
185	0xbfc029d3	-1.5012764
186	0xbff69c9b	-1.9266542
187	0x3e02eb6f	0.12785123
188	0x3f82eed3	1.0229133
189	0xbf0e4897	-0.55579513
190	0x3f344b38	0.70427275
191	0x3f35ba6f	0.709876
192	0x3fe31f29	1.7743884
193	0xbf6beac4	-0.921551
194	0x3f76631e	0.9624499
195	0xbeac8d40	-0.33701515
196	0xbf967155	-1.1753336
197	0x3eb75342	0.35805708
198	0x3ef52111	0.4787679
199	0x3fad460b	1.3537
200	0x3e8278fe	0.25482935
201	0x3fb3345e	1.4000356
202	0xbe8a13e4	-0.269683
203	0xbee6f622	-0.4510966
204	0x3d776095	0.060394842
205	0x3f086f1f	0.5329456
206	0x3f28c622	0.65927327
207	0x3e5b6281	0.21424295
208	0xbea90f2e	-0.33019394
209	0xbf0d7ddc	-0.5527017
210	0xbe38b8cf	-0.18039249
211	0xbe8f8708	-0.28032708
212	0x3d1da3c1	0.038486246
213	0x3e6e061d	0.2324452
214	0xbd6265ad	-0.055272747
215	0xbfa58446	-1.2930992
216	0xbe4e369a	-0.20138016
217	0x3f047af2	0.517501
218	0xbf8d5030	-1.1040096
219	0x3f410f93	0.7541439
220	0x3ddd5709	0.10807616
221	0xbe6d39aa	-0.23166528
222	0x3efb1a68	0.49043584
223	0x3f83e7d3	1.0305122
224	0xbb2386b9	-0.0024952127
225	0x3f64c749	0.89366585
226	0x3d9a80fc	0.07544133
227	0xbf0756c8	-0.5286679
228	0xbe9719c6	-0.2951185
229	0x3cfbe502	0.030748848
230	0x3e681ed3	0.22668009
231	0x3f940439	1.1563789
232	0xbd2d52ab	-0.042315166
233	0xbf0613ff	-0.5237426
234	0xbf9686f6	-1.1759937
235	0xbf01149c	-0.5042207
236	0x3cdb7814	0.026790656
237	0x3d672e25	0.05644049
238	0x3dcc2a53	0.0996901
239	0x3e3c903c	0.18414396
240	0xbee9b37e	-0.45644754
241	0x3dc85548	0.09781891
242	0xbe62cb74	-0.22147924
243	0x3e6eca7c	0.23319429
244	0xbee587e5	-0.44830242
245	0x3c19a64b	0.009378026
246	0xbe31a407	-0.17347728
247	0x3f6b7f36	0.91990983
248	0x3f1aff35	0.60545665
249	0xbeed8b14	-0.4639517
250	0x3ed4d99a	0.41572267
251	0x3e91bae4	0.284629
252	0x3e77931d	0.24177213
253	0x3e6d08be	0.23147866
254	0x3e419551	0.18904616
255	0x3dc3646c	0.09540638

lin.weight f4 [29, 400]
0	0x3c81cf56	0.015845936
1	0xbd804108	-0.06262404
2	0x3c62a667	0.013833619
3	0x3c843f3e	0.016143437
4	0xbc39a481	-0.011330725
5	0x3d82970f	0.063764684
6	0xbd6f9e69	-0.05850068
7	0xbd716e5e	-0.058943145
8	0x3d75aeb7	0.059981074
9	0x3ce4e90e	0.02794316
10	0x3d39e6c1	0.04538608
11	0xbc88a722	-0.016681258
12	0xbd9cd1a0	-0.0765717
13	0xbccdd862	-0.025127593
14	0x3d0e0f3b	0.034682494
15	0x3b54fb60	0.0032498464
16	0x3d6bbb22	0.05755151
17	0xbd0e2c97	-0.034710493
18	0x3b66a0e2	0.0035191108
19	0xbc97c1d0	-0.018525034
20	0x3c980200	0.018555641
21	0xbdc88ea4	-0.097928315
22	0x3d0dd687	0.034628417
23	0xbda54d79	-0.08071417
24	0x3d882846	0.066483065
25	0xbd55c32e	-0.05218809
26	0x3c250d56	0.01007398
27	0xbdbcfc01	-0.092277534
28	0xbdafaa8a	-0.085774496
29	0xbcc64f44	-0.024207719
30	0x3cbaf6e0	0.022822797
31	0xbd988049	-0.074463435
32	0x3dd299c0	0.10283232
33	0xbc1d83ba	-0.009613926
34	0x3dd9cce2	0.106347814
35	0x3d8edc3b	0.069755994
36	0x3dcf3b02	0.10118677
37	0x3e1a3575	0.15059455
38	0xbe01f7d6	-0.12692198
39	0xbb931cd4	-0.0044895206
40	0xbcd537aa	-0.02602752
41	0xbd21ca3a	-0.0394995
42	0xba4655e7	-0.0007565901
43	0xbac61be4	-0.0015114513
44	0x3d4af255	0.049547512
45	0x3d1cd4c7	0.038288858
46	0x3d2b1e11	0.04177672
47	0xbd0fc99a	-0.03510437
48	0x3c973177	0.018456204
49	0xbe047c87	-0.12938128
50	0xbd1b26b0	-0.037878692
51	0x3bb1680c	0.0054140147
52	0xbd31fade	-0.043452136
53	0xbd826893	-0.06367602
54	0xbc80f311	-0.015740903
55	0x3db5e40a	0.088813856
56	0x3dbb716a	0.091524914
57	0xbc249c17	-0.01004698
58	0xbc9edc09	-0.01939203
59	0x3dac1a9f	0.08403515
60	0x3d8baf5a	0.06820555
61	0xbcb0e036	-0.021591287
62	0x3dd57278	0.10422224
63	0xbdc7a368	-0.09747964
64	0x3da24cd8	0.07924813
65	0xbd1177a1	-0.035514478
66	0x3ddc1cfd	0.107477166
67	0x3db439d8	0.08800095
68	0xbc76d373	-0.015065062
69	0x3c32afb2	0.010906147
70	0x3df02c10	0.11727154
71	0x3d54f450	0.051990807
72	0xbd15e1c6	-0.036592267
73	0x3d3250fe	0.04353427
74	0x3a36637e	0.00069575745
75	0x3cbbcf6d	0.022926057
76	0x3d8a0f8c	0.067412466
77	0x3d8ae9f0	0.06782901
78	0xbd9de4cc	-0.07709655
79	0xbd0cec14	-0.03440483
80	0xbdb3e1fc	-0.087833375
81	0x3c16df18	0.009208463
82	0x3cd38832	0.025821779
83	0x3d7c7193	0.06163175
84	0x3d797730	0.06090468
85	0xbcc4ac9f	-0.024008093
86	0x3d43e118	0.047822088
87	0x3b1845d2	0.0023234976
88	0xbcd26a1f	-0.025685368
89	0x3db0ddf4	0.08636084
90	0xbe097fdc	-0.1342768
91	0x3b16b7c0	0.0022997707
92	0xbd1d935a	-0.038470604
93	0x3d00809f	0.031372663
94	0x3e30ced8	0.17266405
95	0xbdb8b07c	-0.09018037
96	0x3cbacfee	0.022804227
97	0x3ceea48e	0.0291312
98	0xbd2f32ea	-0.042773165
99	0xbd091041	-0.033462767
100	0x3d013801	0.03154755
101	0x3d59ef47	0.05320671
102	0xbc7feed1	-0.015620903
103	0xbdc42f7c	-0.095793694
104	0x3c69806f	0.014251812
105	0xbd34acda	-0.044110157
106	0xbd39db6e	-0.04537528
107	0x3d0bd0db	0.034134727
108	0xbd2336e6	-0.039847277
109	0xbdab4e24	-0.083645135
110	0x3d5b7e5a	0.053587295
111	0x3d06b460	0.032886863
112	0xbd0e09c6	-0.03467729
113	0x3d82c0f8	0.06384462
114	0xbd81dcc0	-0.06340933
115	0x3cda26b4	0.026629783
116	0x3c80862b	0.015688976
117	0x3c5c12a2	0.013432177
118	0x3d4351b0	0.047685325
119	0xbd80079f	-0.062514536
120	0x3d15e07a	0.03659103
121	0x3c59149b	0.013249542
122	0xbdc1d12c	-0.094637245
123	0x3daef357	0.08542507
124	0xbd806846	-0.062698886
125	0xbd828978	-0.06373876
126	0x3b45182f	0.003007423
127	0x3e0348f6	0.12820801
128	0x3d3c7272	0.04600758
129	0xbda24c2a	-0.079246834
130	0xbbc10a3f	-0.005891114
131	0x3d7ab8e3	0.061211478
132	0xbd34f78c	-0.04418139
133	0xbdb741b4	-0.08948079
134	0x3d354d55	0.044263203
135	0xbde69183	-0.11258223
136	0x3de750ef	0.11294734
137	0x3d35503a	0.044265963
138	0x3c178b24	0.009249482
139	0xbd0439cb	-0.03228168
140	0xbd93a206	-0.07208638
141	0xbd4687e4	-0.04846944
142	0x3cded24e	0.02719989
143	0x3deb9858	0.11503667
144	0x3c5c5e1f	0.013450175
145	0x3bf072af	0.00733789
146	0x3d2d41e0	0.04229915
147	0xbd5daea9	-0.054121647
148	0xbd866407	-0.065620475
149	0xbdebc577	-0.11512273
150	0xbbe08a84	-0.00685245
151	0x3d959596	0.07303922
152	0x3dd52884	0.10408118
153	0xbd62b726	-0.055350445
154	0x3d4e884c	0.05042295
155	0x3da1bfe1	0.07897926
156	0xbda865e9	-0.08222563
157	0xbca3a84f	-0.019977717
158	0x3c91f197	0.017815394
159	0xbdb3ddd2	-0.08782543
160	0xbbc9ec0d	-0.0061621726
161	0xbd3ce7fe	-0.046119682
162	0x3caf3795	0.021388808
163	0xbdfbf8ca	-0.12303312
164	0x3df12b2f	0.11775815
165	0xbd16d1a3	-0.03682102
166	0xbd7e0962	-0.062020667
167	0xbcc78660	-0.024356067
168	0x3db70a1b	0.08937474
169	0x3d8d7177	0.06906407
170	0x3d846b88	0.064658225
171	0xbd4baf0e	-0.049727492
172	0x3db41812	0.087936535
173	0xbddc3865	-0.10752944
174	0xbd1eab21	-0.03873742
175	0xbdc30c24	-0.095238
176	0xbdeab920	-0.11461091
177	0x3d61fe54	0.055174187
178	0xbc2c9179	-0.01053273
179	0xbd965037	-0.073395185
180	0xbd0478e6	-0.03234186
181	0xbdbb1ccb	-0.09136351
182	0xbc87bf53	-0.016570723
183	0x3bfdf225	0.007749813
184	0x3cf2a8fa	0.02962159
185	0xbdb93540	-0.0904336
186	0xbd15308f	-0.036423262
187	0x3b0c619c	0.0021420484
188	0xbdd1f9d1	-0.10252727
189	0xbd403b61	-0.04693163
190	0xbc67a1d3	-0.014137703
191	0x3c799308	0.015232809
192	0x3c01995b	0.007910098
193	0x3d6335e9	0.055471335
194	0x3c4767db	0.012170757
195	0xbd6b8ce3	-0.057507407
196	0xbc34458a	-0.0110029075
197	0x3d72d98f	0.05928951
198	0xbda58ea0	-0.08083844
199	0xbd883425	-0.06650571
200	0x3b9de406	0.0048184423
201	0xbdec48e3	-0.115373395
202	0xbc6b0547	-0.01434452
203	0xbc3eadae	-0.011638088
204	0xbd401165	-0.04689159
205	0xbc9058fe	-0.01762056
206	0xbd202f3a	-0.03910754
207	0xbdc17644	-0.094463855
208	0x3d54d7b4	0.051963523
209	0xbd93d732	-0.072187796
210	0x3d190668	0.037359625
211	0x3c47f7a0	0.0122050345
212	0xbe1abdbd	-0.15111442
213	0xbbbde080	-0.0057945848
214	0x3cce8469	0.025209622
215	0x3d01ffb2	0.03173799
216	0x3c8e4cae	0.017370548
217	0xbc1c8e8f	-0.009555473
218	0x3bf29570	0.0074030682
219	0xbaef5fcd	-0.0018262804
220	0x3d4ce329	0.050021324
221	0xbd3b76ac	-0.04576747
222	0x3d120fc3	0.035659563
223	0xbde95760	-0.113936186
224	0x3cb0f85f	0.021602808
225	0xbd311184	-0.043229595
226	0x3c9ffe73	0.01953051
227	0xbdce0f12	-0.10061468
228	0xbd7b8f30	-0.06141585
229	0xb9ab5966	-0.0003268227
230	0xbd1cf2e3	-0.038317572
231	0x3c231b6f	0.009955271
232	0x3da0e08f	0.07855331
233	0xbb4fad24	-0.0031688893
234	0x3d80955b	0.06278487
235	0x3a5c41b8	0.0008402127
236	0x3e14a364	0.14515454
237	0x3da296c2	0.07938911
238	0xbde01bea	-0.10942824
239	0x3bf6c885	0.007531228
240	0x3d8c00f6	0.06836121
241	0x3ceb774e	0.028743412
242	0x3c4f1760	0.01263985
243	0x3bd6a260	0.0065501183
244	0x3e035e38	0.1282891
245	0x3dbaa210	0.09112942
246	0x3ca2737f	0.019830463
247	0xbda898f5	-0.08232299
248	0xbb615b3f	-0.0034386662
249	0xbd113177	-0.035447564
250	0x3d914b81	0.07094479
251	0xbd1f1170	-0.03883499
252	0xbd8b3b54	-0.06798425
253	0xbda2246b	-0.079171024
254	0x3d203b4e	0.039119057
255	0x3ddaee14	0.10689941

lin.bias f4 [29]
0	0xbdc3ff48	-0.095701754
1	0xbd0a9a7a	-0.033838727
2	0xbcd58979	-0.026066529
3	0x3cc854f8	0.024454579
4	0xbd68f526	-0.056874417
5	0xbceba38d	-0.02876451
6	0xbd1ebbbf	-0.038753267
7	0x3ce764ae	0.02824625
8	0xbdf12fa9	-0.117766686
9	0xbd0efc83	-0.034908783
10	0xbc9b5334	-0.018960573
11	0xbbe077de	-0.006850227
12	0xbd585d03	-0.052823078
13	0x3c96684b	0.018360278
14	0xbcb9d903	-0.022686487
15	0xbcb93f59	-0.022613214
16	0x3c23d969	0.010000565
17	0xbd4bdec6	-0.049773
18	0xbd2270a6	-0.03965821
19	0xbe000bb5	-0.12504466
20	0xbc29d2e6	-0.0103652235
21	0xba7ebbba	-0.00097173045
22	0x3d275d14	0.04086025
23	0x3d6b3f25	0.057433266
24	0xbd4c9a98	-0.04995212
25	0xbb90658a	-0.0044066356
26	0xbd0d66c7	-0.034521844
27	0xbcbc7160	-0.02300328
28	0xbdb1a265	-0.086735524

hid.weight f4 [256, 400]
0	0xbd5f5733	-0.05452652
1	0x3be1106b	0.0068684123
2	0xbc410b4a	-0.011782477
3	0xbba9607c	-0.0051689725
4	0xbd56d727	-0.05245128
5	0xbc415cf3	-0.011801946
6	0xbcbe2f1b	-0.023215821
7	0xbc0a1e4c	-0.008430075
8	0x3ba996b0	0.005175434
9	0x3d1be0c1	0.03805614
10	0x3cb9629a	0.022630025
11	0xbd6b08bf	-0.057381388
12	0xbccd0c0b	-0.025030157
13	0x3bce319e	0.006292536
14	0x3d64a4b1	0.055821124
15	0xbd24c97f	-0.040231224
16	0xbcec5f0e	-0.02885392
17	0xbd2ed922	-0.042687543
18	0xbcc45f98	-0.023971364
19	0x3c971f3a	0.018447507
20	0x3c7dee82	0.015498759
21	0xbc3f5d4b	-0.011679958
22	0xbcfb8a4c	-0.030705594
23	0x3d4ca1d0	0.049959004
24	0xbcb4f01b	-0.022087147
25	0xbc7bb4c4	-0.015362922
26	0xbc6ccd37	-0.014453224
27	0xbc994a01	-0.018712046
28	0x3d02a905	0.03189947
29	0x3d09c6ae	0.03363674
30	0x3c0385bf	0.008027493
31	0x3d433e4a	0.047666825
32	0xbd36b64e	-0.044607453
33	0xbc9c393d	-0.019070262
34	0x3cc7ba3c	0.024380796
35	0x3b1d2ce2	0.002398305
36	0xbddd1fa6	-0.10797052
37	0xbbc7b68d	-0.00609476
38	0xbb6f3d16	-0.0036504916
39	0xbcc72ab3	-0.024312353
40	0x3c2bee07	0.010493762
41	0x3d3f1a90	0.04665619
42	0x3d21e25d	0.039522517
43	0xbc3bee42	-0.011470379
44	0x3d5441c1	0.05182052
45	0xbcd14067	-0.025543405
46	0x3b82921f	0.003984704
47	0xbd27db21	-0.040980462
48	0x3ce9dc53	0.028547442
49	0x3c700527	0.014649666
50	0xbcd5fe47	-0.026122225
51	0x3cba3791	0.022731574
52	0x3d31f2ea	0.04344455
53	0x3da9d6d0	0.08292925
54	0x38942eb5	7.06589e-05
55	0xbd4f1bde	-0.050563686
56	0x3c8c52ed	0.017129386
57	0xbc801480	-0.015634775
58	0xbbb71751	-0.0055874963
59	0xbb939bb4	-0.0045046452
60	0x3d04be70	0.032408178
61	0xbb951892	-0.004550048
62	0xbc23d115	-0.0099985795
63	0xbd0473e1	-0.032337073
64	0xbc77ae6d	-0.01511727
65	0x3d191b9d	0.03737985
66	0x3c11a0a5	0.008888398
67	0xbd4eb7c2	-0.050468214
68	0x3ba3e3fc	0.005001543
69	0x3c7e1417	0.0155077195
70	0xbc881f49	-0.01661648
71	0x3bcbf37b	0.0062240935
72	0x3cdf823e	0.027283784
73	0x3cea4f2c	0.028602205
74	0x3c8ba2aa	0.017045338
75	0xbcdaa1a1	-0.026688399
76	0xbd8ff410	-0.07028973
77	0x3d851ae6	0.06499271
78	0xba965d96	-0.0011471983
79	0x3d69a1b8	0.057038993
80	0x3d100ac3	0.035166513
81	0xbcdb7708	-0.026790157
82	0x3c837cfe	0.016050812
83	0xbc920a56	-0.017827194
84	0xbc7e0112	-0.015503185
85	0x3ca1f968	0.019772246
86	0x3d038e5c	0.032118186
87	0x3c550aa1	0.013003022
88	0x3cc25225	0.02372081
89	0x3be03b0b	0.006842976
90	0x3bfe5147	0.007761154
91	0xbd6ab587	-0.057302024
92	0x3d374ffc	0.044754013
93	0x3c1be0ec	0.009514075
94	0x3c074a4e	0.008257462
95	0xbc1f4439	-0.009720855
96	0x3d0a413b	0.033753615
97	0xbc0318da	-0.008001531
98	0xbb06c9a8	-0.0020566974
99	0xbd3953ff	-0.04524612
100	0x3cd7d862	0.026348297
101	0xbc6cee7e	-0.014461158
102	0xbd51dea7	-0.05123773
103	0x3bed1005	0.0072345757
104	0xbc80d800	-0.015727997
105	0xbc5c1734	-0.013433266
106	0x3c9fdb0a	0.019513626
107	0xbc8b379b	-0.016994288
108	0x3c836914	0.016041316
109	0xbc003732	-0.00782566
110	0xbc767154	-0.015041668
111	0x3c825e41	0.015914084
112	0x3b6f6474	0.003652838
113	0x3cf0c354	0.029390015
114	0x3c70057b	0.014649744
115	0x3c740a1f	0.014894991
116	0x3d46429d	0.04840337
117	0xbc267e41	-0.010161937
118	0x3d469fb9	0.048492167
119	0xbd3cda49	-0.04610661
120	0x3d3af49b	0.04564343
121	0xbbcb3585	-0.0062014484
122	0x3d0e24c7	0.034703042
123	0xbd5e4e7b	-0.054274064
124	0xbc09a66e	-0.008401496
125	0x3c96abeb	0.018392524
126	0xbb825b23	-0.0039781495
127	0x3c329e62	0.010902019
128	0x3d281571	0.041036073
129	0x3b4f4220	0.0031625107
130	0xb9ea5de5	-0.00044701915
131	0xbbbf12bd	-0.005831091
132	0xbcbe44f2	-0.023226235
133	0xbd52cf80	-0.05146742
134	0xbcf80524	-0.030275889
135	0x3c732775	0.01484095
136	0x3d8d7cf2	0.06908597
137	0x3ca8874a	0.020572323
138	0xbd5d4d62	-0.054028876
139	0xbd38eb83	-0.045146476
140	0xbb0a4fed	-0.0021104768
141	0xbd06115a	-0.03273139
142	0xbcce52bf	-0.02518594
143	0x3d45c3ff	0.04828262
144	0x3d43fc20	0.047847867
145	0x3c2517a5	0.010076438
146	0x3d3ba20b	0.045808833
147	0xbd188538	-0.037236422
148	0xbd416d07	-0.047223117
149	0x3c3da1b5	0.0115741985
150	0xbc8035e8	-0.015650705
151	0xbaf95da4	-0.00190251
152	0xbceb6337	-0.028733833
153	0xbd2401dd	-0.04004084
154	0x3d0071fe	0.03135871
155	0x3c7b116a	0.015323976
156	0xbaf81a74	-0.0018928782
157	0xbcfb5c5a	-0.030683685
158	0x3d44d9ae	0.048059158
159	0xbd7c1536	-0.061543666
160	0xbc06c7a5	-0.00822631
161	0x3cf87903	0.03033114
162	0xbbf037ce	-0.007330871
163	0x3d27f0c3	0.041001093
164	0x3ca69e25	0.020339081
165	0xbc397cf5	-0.011321296
166	0xbcef9db2	-0.02925
167	0xbcbcc8aa	-0.023044903
168	0xbc86d4ad	-0.016458834
169	0x37861a10	1.5986181e-05
170	0x3ce0cb74	0.027440764
171	0xbce16735	-0.027515033
172	0xbba77e7c	-0.0051115137
173	0xbca32556	-0.019915264
174	0x3d6a0575	0.05713411
175	0x3db4852d	0.08814464
176	0x3d3bb5ba	0.045827605
177	0x3d274af6	0.040842973
178	0xbcca8514	-0.02472166
179	0xbaab69b2	-0.0013077764
180	0xbc7bfdbc	-0.015380319
181	0x3c9d3721	0.019191327
182	0x3c8c0a3a	0.01709472
183	0x3d2519dd	0.04030787
184	0xbcfe5727	-0.031047417
185	0xb9822968	-0.00024826382
186	0xbcf7ce57	-0.030249758
187	0xbd11cfe2	-0.035598643
188	0xbcf71758	-0.030162498
189	0xbc41917c	-0.011814471
190	0xbbb3a578	-0.005482372
191	0x3cbdda86	0.02317549
192	0x3cb237a7	0.021755053
193	0xbbed1b8a	-0.007235949
194	0x3c962c37	0.01833163
195	0xbb9c7548	-0.004774723
196	0x3d2f8997	0.042855825
197	0xbbc58754	-0.0060280953
198	0xbcb1bed7	-0.021697445
199	0x3cdf50fa	0.027260292
200	0x3d339f96	0.043853365
201	0xbc3cd917	-0.011526368
202	0x3cc588f2	0.024113152
203	0x3cd63e2e	0.026152696
204	0xbd5a15f8	-0.053243607
205	0xbc92bbc6	-0.017911803
206	0x3be5ff3b	0.0070189512
207	0x3cebfa00	0.028805733
208	0x3b9b47f9	0.0047388044
209	0xbc25a889	-0.010110983
210	0x3ced87ba	0.028995384
211	0xbd28ddee	-0.041227274
212	0xbd59735e	-0.05308854
213	0xbd03dec5	-0.03219487
214	0x3c7b3c51	0.015334205
215	0x3d0ca177	0.034333672
216	0x3b44af2d	0.003001164
217	0xbcae376a	-0.021266658
218	0x3cf7308f	0.030174522
219	0xba7517c6	-0.0009349551
220	0xbca2ab1d	-0.019856984
221	0x3d07e774	0.033179715
222	0x3c2f9631	0.010716961
223	0xbb489f5c	-0.0030612564
224	0x3c87c21a	0.016572047
225	0xbadb0b98	-0.0016711829
226	0xbc973b56	-0.01846091
227	0x3cb77257	0.022393389
228	0x3c867800	0.016414642
229	0x3b098c81	0.0020988288
230	0xbc86e58b	-0.016466876
231	0x3ca634d9	0.020288872
232	0xbd30ee43	-0.043195974
233	0xbc56d81f	-0.013113051
234	0xbd384ed7	-0.044997063
235	0x3d356127	0.044282105
236	0x3c98a0dc	0.018631391
237	0x3c65a75d	0.014016953
238	0xbcf20a6f	-0.02954599
239	0x3cd3b6b2	0.025843952
240	0xbd135d51	-0.035977665
241	0xbd3818a5	-0.044945378
242	0xbd1847bc	-0.037177786
243	0x3d37e5f6	0.044897042
244	0xbb3ce330	-0.0028821938
245	0x3c8e3bed	0.01736256
246	0xba49eca5	-0.0007702804
247	0x3d2fe6e3	0.0429448
248	0xbc9c419b	-0.019074252
249	0xbcd2210e	-0.025650527
250	0xbcc896aa	-0.024485905
251	0xba971de6	-0.0011529296
252	0xbd0cf3dc	-0.03441225
253	0x3c223843	0.009901109
254	0x3d64135a	0.055682518
255	0x3cfbfb00	0.030759335

hid.bias f4 [256]
0	0xbc96c141	-0.018402698
1	0xbe285a91	-0.16440798
2	0xbc1f6657	-0.00972899
3	0x3db22972	0.08699311
4	0xbd39a4b3	-0.045323085
5	0x3db5318c	0.08847341
6	0x3cf2ec72	0.029653762
7	0x3e327f4a	0.1743137
8	0xbc319b7a	-0.010840291
9	0xbe092e2a	-0.13396516
10	0x3d218bb2	0.039439864
11	0xbd849ebc	-0.06475589
12	0x3d166583	0.036717903
13	0x3b035103	0.00200373
14	0x3d3e2d3a	0.04642985
15	0x3ce99351	0.028512629
16	0xbc01b344	-0.007916275
17	0xbe1e0a2d	-0.15433569
18	0x3d907b92	0.07054819
19	0x3ca58ae2	0.020207826
20	0x3cd11b10	0.0255256
21	0x3e37a028	0.17932189
22	0xbe258985	-0.16165741
23	0x3ce976d0	0.028499037
24	0x3e21b065	0.15789945
25	0xbdfe6b10	-0.12422764
26	0xbd38284b	-0.0449603
27	0xbd600501	-0.054692272
28	0xbd86ba46	-0.065784976
29	0x3c94ebfe	0.018178936
30	0xbe84a450	-0.2590661
31	0x3de7ccf4	0.113183886
32	0xbdb53ec7	-0.088498645
33	0xbe16180a	-0.14657608
34	0x3caa8169	0.02081366
35	0xbcf98090	-0.030456811
36	0xbe2a10f7	-0.16608034
37	0x3e2b2450	0.16713071
38	0xbdd4cc2d	-0.10390506
39	0x3da216e4	0.07914522
40	0xbe50f18e	-0.20404646
41	0xbd5753e0	-0.052570224
42	0x3d281bdd	0.041042197
43	0x3e0fa503	0.1402779
44	0xbe09f568	-0.13472521
45	0xbc5d53a8	-0.013508715
46	0x3d091027	0.03346267
47	0x3d16e46b	0.03683893
48	0xbd9cbfbe	-0.076537594
49	0xbdc2411f	-0.09485077
50	0xbc2d7d01	-0.010588885
51	0xbd5b97f6	-0.053611718
52	0x3bf83a12	0.007575282
53	0x3ce4543e	0.027872201
54	0xbdd6c343	-0.10486462
55	0x3e645c95	0.22300942
56	0xbe4c720a	-0.19965377
57	0xbda7903a	-0.08181806
58	0x3e05e258	0.13074625
59	0xbc83abee	-0.016073193
60	0x3d616b5b	0.055034023
61	0xbdc2fb6e	-0.09520613
62	0xbdb4bccc	-0.08825073
63	0xbe8aa842	-0.27081496
64	0xbbfa0fed	-0.007631293
65	0xbb41c433	-0.0029566407
66	0x3df2edb9	0.11861748
67	0x3b0f7556	0.0021890006
68	0x3d5b9722	0.05361093
69	0xbd495783	-0.049155723
70	0x3dfb941c	0.12284109
71	0xbd674058	-0.056457847
72	0x39b60792	0.00034719385
73	0xbe139900	-0.14413834
74	0x3e929571	0.2862964
75	0x3db7d1ca	0.08975561
76	0x3e38e235	0.18055041
77	0x3da4bdf8	0.08044046
78	0xbd7d9def	-0.061918195
79	0x3e36c274	0.17847615
80	0x3deed462	0.116616026
81	0xbe3c0e3a	-0.18364802
82	0xbe1920e6	-0.14953956
83	0x3d1b6f92	0.0379482
84	0x3e1ba971	0.15201356
85	0x3d5ed7dc	0.05440508
86	0xbe321076	-0.17389092
87	0x3e346a21	0.1761861
88	0xbde137e9	-0.10996992
89	0x3cc45d6c	0.023970328
90	0x3dfc44fd	0.12317846
91	0x3df83201	0.121189125
92	0x3dffa195	0.12481991
93	0xbdd3adb0	-0.10335863
94	0xbd3373de	-0.04381167
95	0xbdd08903	-0.10182383
96	0xbd469e13	-0.048490595
97	0x3e991d96	0.29905385
98	0xbe08840a	-0.13331619
99	0xbe2e3eb6	-0.1701611
100	0x3d57be22	0.05267156
101	0x3b44d106	0.0030031814
102	0xbe2d8a46	-0.16947278
103	0x3e4e3a67	0.20139466
104	0xbdcc4945	-0.099749126
105	0x3dd8f534	0.10593644
106	0xbd3f2673	-0.046667527
107	0xbc67a57d	-0.014138577
108	0x3cd10430	0.025514692
109	0x3df7f43b	0.1210713
110	0x3d8783bd	0.06616924
111	0xbd8c5063	-0.0685127
112	0x3e1159da	0.14194432
113	0x3d817cab	0.06322607
114	0xbe558ae5	-0.20853765
115	0x3b11f4d4	0.0022271173
116	0xbe463054	-0.19354373
117	0xbe3fedfc	-0.18743128
118	0xbd3acf48	-0.045607835
119	0xba6e9b1c	-0.00091020926
120	0xbd8ed348	-0.069738925
121	0xbdd62a42	-0.10457279
122	0x3d1b11ea	0.03785888
123	0xbd9d0016	-0.07666032
124	0x3cbcb3de	0.023034986
125	0xbdc82277	-0.09772199
126	0xba471225	-0.00075939513
127	0xbe02ae3a	-0.12761775
128	0x3e10929d	0.14118429
129	0xbdbebfaa	-0.09313901
130	0x3e4cd5c8	0.20003426
131	0xbd0a4761	-0.03375948
132	0xbc5b01e5	-0.013367151
133	0x3d1886c3	0.037237894
134	0x3d062b43	0.0327561
135	0x3dc51f30	0.09625089
136	0xbd4bd915	-0.049767572
137	0xbe1ef6af	-0.1552379
138	0x3c96f8de	0.018429216
139	0xbe078b6f	-0.13236783
140	0xbd787603	-0.06065942
141	0xbbe86073	-0.007091576
142	0x3d68aef8	0.05680749
143	0x3d80cd5b	0.062891684
144	0x3dc51d50	0.096247315
145	0xbe60557c	-0.2190761
146	0xbd6ebb0e	-0.058283858
147	0xbe09291e	-0.13394591
148	0x3e06487d	0.1311359
149	0x3d81cb19	0.06337566
150	0x3d0760bc	0.033051237
151	0xbd4333f1	-0.047656957
152	0xbe29a992	-0.16568592
153	0x3e3b64ce	0.18300173
154	0x3d963cd8	0.07335824
155	0x3dd98d10	0.10622609
156	0x3e0e1342	0.13874534
157	0xbd66b652	-0.056326218
158	0x3e621fdb	0.22082464
159	0x3dbbac2d	0.09163699
160	0x3d9776b3	0.07395687
161	0xbdb8c2f4	-0.09021559
162	0xbd337b39	-0.043818686
163	0xbda215ea	-0.07914336
164	0x3d75d5c6	0.060018323
165	0x3df95207	0.121738486
166	0xbe15dfb2	-0.14636114
167	0xbc4cd879	-0.012502783
168	0x3c5df0e8	0.013546206
169	0x3ce1b144	0.027550347
170	0x3cba916f	0.022774426
171	0xbd775093	-0.060379576
172	0x3e374cf4	0.17900449
173	0xbe2943f1	-0.16529824
174	0x3dfa92be	0.1223502
175	0xbd825986	-0.063647315
176	0xbae1e04b	-0.0017232982
177	0x3c0f9f04	0.00876594
178	0xbe60d777	-0.21957193
179	0xbe65fa8d	-0.22458859
180	0x3e497dfa	0.19676962
181	0x3e102bc5	0.14079197
182	0xbce07385	-0.027398834
183	0xbe49a236	-0.19690785
184	0x3c95a4c2	0.01826704
185	0x3d1d4dc2	0.038404234
186	0x3e09b929	0.13449539
187	0xbcf6939f	-0.030099688
188	0x3c120366	0.008911943
189	0x3d0516b4	0.032492355
190	0x3dff6c2c	0.12471804
191	0x3df1327a	0.11777206
192	0xbe49ec8e	-0.19719145
193	0x3a8fd9f8	0.0010974994
194	0xbe146e52	-0.14495209
195	0x3d854a02	0.065082565
196	0x3d9c3363	0.07626989
197	0x3cd726f1	0.026263686
198	0x3e3ce093	0.18445043
199	0x3e43a19c	0.19104618
200	0x3e188e08	0.1489793
201	0xbe099a39	-0.13437738
202	0xbdc778fe	-0.09739874
203	0x3e0e73a9	0.13911308
204	0xbae8f520	-0.0017773248
205	0x3e9d86ce	0.3076691
206	0xbd56213a	-0.05227778
207	0x3cda4d7c	0.026648276
208	0x3e81634b	0.25271067
209	0x3d3e9a11	0.046533648
210	0xbdb0deb4	-0.08636227
211	0x3ca4cd49	0.020117419
212	0x3ddb5c68	0.107109845
213	0xbd5624de	-0.052281253
214	0xbe8798be	-0.2648372
215	0xbdebfd38	-0.11522907
216	0x3db68f15	0.089140095
217	0x3db80948	0.08986145
218	0x3c212e97	0.009837768
219	0x3c5f4b80	0.01362884
220	0x3e14cdbf	0.14531611
221	0xbd17abd1	-0.03702909
222	0xbe11b319	-0.14228477
223	0x3da6ed06	0.081506774
224	0x3c23dc29	0.010001221
225	0xbde1ccb4	-0.11025372
226	0x3db0c4bd	0.08631275
227	0xbe91497f	-0.28376386
228	0x3e0d63ab	0.13807552
229	0x3dab1684	0.08353904
230	0x3e034682	0.12819865
231	0x3cd364c5	0.025804887
232	0x3bc53fa6	0.0060195504
233	0xbdf199a8	-0.11796886
234	0xbc7dad3a	-0.015483195
235	0x3debed16	0.1151983
236	0xbd0c66fe	-0.03427791
237	0x3db15277	0.08658307
238	0xbe230f1b	-0.15923731
239	0x3dfbf448	0.12302452
240	0xbe47f505	-0.19527061
241	0xbd15c2c0	-0.03656268
242	0x3e49a979	0.19693555
243	0xbd18443c	-0.03717445
244	0x3ca39119	0.019966649
245	0x3bd62678	0.0065353476
246	0x3e104265	0.14087828
247	0xbce99223	-0.028512066
248	0x3e54f964	0.2079826
249	0x3d0610cf	0.032730874
250	0x3dcf54ae	0.10123573
251	0xbd93c53f	-0.07215356
252	0x3c6fc6a1	0.014634759
253	0x3e22a8f1	0.15884759
254	0xbcad68e0	-0.021168172
255	0xbceca452	-0.028886948

hid_to_vocab.weight f4 [29, 256]
0	0xbd7a6e6a	-0.061140455
1	0x3e2e2269	0.17005314
2	0x3daaf837	0.083481245
3	0xbdf20a76	-0.118184015
4	0x3dbcfeaf	0.092282645
5	0xbda25840	-0.079269886
6	0xbddc5abd	-0.107594945
7	0xbe0d2aa7	-0.13785802
8	0x3e212cb7	0.15739714
9	0x3e96a16b	0.29420027
10	0xbddfdd67	-0.10930901
11	0x3e61c0e5	0.2204624
12	0xbd44be60	-0.04803312
13	0xbb3608ad	-0.0027776167
14	0xbc896d82	-0.01677585
15	0xbdd28149	-0.102785654
16	0xbd959803	-0.073043846
17	0x3e8171fa	0.2528227
18	0xbe1f51ea	-0.15558591
19	0xbe6a903e	-0.22906587
20	0xbd71cd28	-0.059033543
21	0xbe0198a3	-0.12655883
22	0x3e1e822f	0.15479349
23	0x3dd8e70e	0.10590945
24	0xbe646766	-0.22305068
25	0x3e77c854	0.24197513
26	0x3d8c0f12	0.06838812
27	0x3d278cb7	0.04090568
28	0x3e155403	0.14582829
29	0xbddd703f	-0.10812425
30	0x3e2d021a	0.16895333
31	0xbc7ffa41	-0.01562363
32	0x3d298990	0.041390955
33	0x3cfa58da	0.030559946
34	0xbd5d5a55	-0.054041225
35	0x3d744f29	0.059645806
36	0x3e2cb5b2	0.16866186
37	0xbe6a5d28	-0.22887099
38	0x3dde2a57	0.108479194
39	0xbe31a826	-0.173493
40	0x3dc34068	0.09533769
41	0x38e08e15	0.00010707617
42	0xbdaf12f7	-0.08548539
43	0xbdb55981	-0.08854962
44	0x3db111a9	0.086459465
45	0xbb114c56	-0.0022170744
46	0x3ae4b532	0.001744902
47	0xbd7f6ff2	-0.06236262
48	0x3d8eb551	0.06968177
49	0x3e06e9cc	0.13175124
50	0x3d9adef6	0.07562058
51	0x3aaddcc5	0.0013264647
52	0xbd59f4c6	-0.05321195
53	0x3cda5943	0.026653891
54	0x3d82c9ad	0.06386123
55	0xbdb4ded1	-0.08831561
56	0x3e53e07f	0.20691107
57	0x3d3b339d	0.04570352
58	0xbe476855	-0.19473393
59	0xbabd1562	-0.0014425928
60	0xbc9866ed	-0.018603766
61	0x3e062c17	0.13102756
62	0x3d70c29d	0.058779348
63	0x3e24e277	0.16102014
64	0x3d658b89	0.056041274
65	0x3cb4d19b	0.022072604
66	0xbe628092	-0.22119358
67	0xbc330175	-0.01092564
68	0xbdc4f7f4	-0.09617606
69	0x3e92a41c	0.2864083
70	0xbe191c31	-0.1495216
71	0x3d891267	0.06692963
72	0x3cdc99be	0.026928779
73	0x3e1f6b9a	0.1556839
74	0xbe1a5bdd	-0.15074106
75	0xbe2bc55f	-0.1677451
76	0xbe1716a5	-0.14754732
77	0xbe918209	-0.2841952
78	0x3d8a46f3	0.06751814
79	0xbde8071c	-0.11329481
80	0xbd509a10	-0.050928175
81	0x3dbb0258	0.091313064
82	0x3e3dda63	0.18540339
83	0xbab8be32	-0.0014094769
84	0xbdff82c9	-0.12476117
85	0xbe1db308	-0.15400326
86	0x3daa067f	0.0830202
87	0xbe039956	-0.12851462
88	0x3e8fb293	0.2806593
89	0x3d2f7d56	0.04284414
90	0xbb9f7543	-0.0048662736
91	0xbdf056ea	-0.117353275
92	0xbd5a58f9	-0.053307507
93	0x3d0e96eb	0.034811895
94	0x3bf8f879	0.0075979796
95	0x3eb4d057	0.353152
96	0x3d345cb3	0.044033717
97	0xbe4fd671	-0.20296647
98	0x3da18ed0	0.078885674
99	0x3e99e80b	0.30059847
100	0xbdf90d00	-0.12160683
101	0x3c8ee04b	0.017440936
102	0x3e8ed075	0.27893415
103	0xbe0ffbcc	-0.14060897
104	0x3cda46c4	0.026645072
105	0xbe23c6d2	-0.15993813
106	0x3de00896	0.10939138
107	0x3c9ca02c	0.019119345
108	0xbe3f1318	-0.18659627
109	0xbd7848fb	-0.060616475
110	0xbcfe3bf7	-0.031034453
111	0x3dc1595c	0.09440872
112	0xbdf49683	-0.1194277
113	0xbdc16b3b	-0.09444281
114	0x3e8f739f	0.280179
115	0x3caefa4c	0.021359585
116	0x3e5d5829	0.21615662
117	0x3d9fb34e	0.077978715
118	0x3e00d597	0.12581478
119	0xbca3939d	-0.019967848
120	0x3e187a61	0.14890434
121	0x3d167845	0.03673579
122	0xbde36327	-0.11102896
123	0x3da9ee48	0.08297402
124	0xbc01efad	-0.007930678
125	0x3db5c921	0.08876253
126	0x3daf0ad8	0.0854699
127	0x3cc7e985	0.024403343
128	0xbe3087a8	-0.17239249
129	0x3e15488f	0.1457846
130	0xbe57a47a	-0.21058837
131	0x3dd5789d	0.10423396
132	0x3c2c135c	0.0105026625
133	0xbd9a82a6	-0.075444505
134	0xbdce1fff	-0.100646965
135	0xbd7a2bdd	-0.061076988
136	0x3d9673ee	0.073463306
137	0x3dedc021	0.11608911
138	0x3c20f6cc	0.009824466
139	0x3d07e5b9	0.033178065
140	0x3e3e71d7	0.18598114
141	0xbdbc1f9f	-0.09185719
142	0x3df6d782	0.120528236
143	0xbd1a8791	-0.037726942
144	0xbda10fe7	-0.07864361
145	0x3df238b0	0.118272185
146	0xbc825e69	-0.015914159
147	0x3d04afba	0.03239415
148	0xbe250ff1	-0.16119362
149	0xbdbd51f5	-0.09244148
150	0xbdb38aa6	-0.087666795
151	0xbcbbc6b6	-0.022921901
152	0x3e52e7b9	0.20596208
153	0xbd5047f2	-0.050849862
154	0xbde47b02	-0.111562744
155	0xbe26f0eb	-0.1630284
156	0xbe3ab695	-0.18233712
157	0x3e398833	0.18118362
158	0xbe5c8b89	-0.21537603
159	0xbe78254d	-0.24232979
160	0xbd684408	-0.056705505
161	0x3d9c6491	0.07636369
162	0x3dcc5d6f	0.099787585
163	0x3d68170a	0.056662597
164	0xbdac83ed	-0.084236
165	0xbe936dc3	-0.2879468
166	0x3dc7043b	0.09717604
167	0xbd7effc6	-0.062255643
168	0xbdfa612e	-0.12225567
169	0x3c07d24b	0.008289884
170	0xbb26f46e	-0.0025475281
171	0x3da162d6	0.078801796
172	0xbe999dce	-0.30003208
173	0x3e0057ff	0.12533568
174	0xbe14a80a	-0.14517227
175	0x3ddfe89a	0.10933037
176	0x3d51f454	0.0512584
177	0x3d1f06b6	0.03882476
178	0x3e4dad8b	0.20085733
179	0x3e1a3e86	0.15062913
180	0xbe3ab136	-0.18231663
181	0xbcca2958	-0.024677917
182	0x3dc198ba	0.094529584
183	0x3e170949	0.14749636
184	0xb9d43960	-0.0004047854
185	0x3d686677	0.056738343
186	0xbdaea5d7	-0.08527725
187	0x3cd63b77	0.026151402
188	0xbdc36b1d	-0.095419146
189	0x3d936491	0.07196916
190	0xbdfd9e6a	-0.12383731
191	0xbe326444	-0.17421061
192	0x3e1008ec	0.14065903
193	0x3d47bb22	0.048762448
194	0x3e2b3421	0.16719104
195	0xbcb64697	-0.022250457
196	0xbcc242c8	-0.023713484
197	0xbd94a724	-0.07258442
198	0xbe384e85	-0.17998703
199	0xbea1649d	-0.31522074
200	0xbe76eec6	-0.24114522
201	0x3e526296	0.2054542
202	0x3e024bc0	0.12724209
203	0xbe374997	-0.17899166
204	0xbd73de48	-0.059538156
205	0xbdee1132	-0.116243735
206	0x3d35b2c0	0.044359922
207	0xbdd65bb0	-0.10466707
208	0xbdf3cfc8	-0.119048655
209	0xbe15a2c7	-0.14612876
210	0x3e2321ff	0.15930937
211	0x3da7c8bd	0.08192585
212	0xbe06dd50	-0.13170362
213	0x3d0d5db1	0.03451318
214	0x3e1fee4d	0.15618248
215	0x3e3e0ed9	0.18560351
216	0xbdc2beeb	-0.09509071
217	0xbd9cf8b0	-0.07664621
218	0xbcaed638	-0.021342382
219	0x3dc7a1df	0.09747671
220	0xbdb7e5fb	-0.08979412
221	0x3c60a1f4	0.013710488
222	0x3dd4233d	0.10358284
223	0xbdc98c40	-0.09841204
224	0xbd1b2ed0	-0.03788644
225	0x3db91596	0.0903732
226	0xbc5f574e	-0.013631655
227	0x3e207a32	0.15671614
228	0xbdf4c73a	-0.11952062
229	0xbe2fcacf	-0.17167209
230	0xbcc3207d	-0.023819203
231	0xbd834483	-0.06409552
232	0xbcac0bba	-0.021001685
233	0x3e24fa88	0.16111195
234	0x3dc7f734	0.09763947
235	0xbdd445af	-0.103648536
236	0x3cd4a40b	0.025957128
237	0xbd7d4b91	-0.061839644
238	0x3deed019	0.11660785
239	0xbcb0aa4c	-0.021565579
240	0x3e000d7d	0.12505145
241	0x3bfb922a	0.007677336
242	0xbdd6bb2b	-0.10484918
243	0x3dbd3b90	0.09239876
244	0xbc3482d6	-0.011017522
245	0xbcefd865	-0.02927799
246	0xbdd7c922	-0.1053641
247	0x3dd407e1	0.10353065
248	0xbe9d219f	-0.30689713
249	0xbd62c918	-0.05536756
250	0x3d98eb80	0.07466793
251	0x3cbaf3f5	0.022821406
252	0xbdfd8ca2	-0.12380339
253	0xbdb25b4e	-0.08708821
254	0x3d91c7c1	0.07118178
255	0xbc0689c2	-0.008211555
