Sem_4/DLCV/Assignments/assignment1/assignment1/C0_weights.npy (npy, 12128 bytes, 1 tensors)

array f8 [20, 3, 5, 5]
-0.5828851677032223 0.8591833050031423 -0.4655045566041873 0.7585963832744731 -0.6829547255411568 -0.029473720298733186 0.4632410778924845 -0.5439795386940778
0.7444049338329981 0.8619617865872684 -0.8508948660884652 0.1217921922637808 -0.8031932970533382 -0.0185398126743872 0.49545108285445005 0.4898187319835172
0.13843701694704125 -0.3412866260531011 -0.5312814327977384 -0.8936892094050819 0.38225316815193877 0.4820799384092198 0.07182296545023537 0.3432224517407019
0.9352008627898989 -0.6461025518187606 0.11338454534626319 0.057275500831803994 -0.010436242782346339 0.6415013094250879 -0.1227489618158728 -0.482202105436746
0.8639490938107397 -0.3600864888986044 -0.2624910929174571 0.2786032023723888 0.8554563304596148 0.4507593365085458 -0.26551087599132406 0.2901101219616793
0.557466368753009 -0.7980238581764303 -0.12471455086309091 0.8590386627016049 -0.9327798918426022 0.4156341389130038 0.008553839625148552 0.6527901127444895
0.33742912952461723 0.36317644850812414 0.4728538588370639 -0.6330411201035917 0.8328311856692654 -0.953434514260413 0.06098730760931104 0.16390972762327283
0.27426705622161696 0.6714516088966456 -0.054175644638741804 0.7650129035131903 0.6620359611375324 -0.7254811167823569 -0.5874945952595834 0.465181001694823
0.12245209577251659 -0.018898463624029915 -0.6595355235989326 0.21626632177466498 0.9943515095364448 -0.9061130207578891 0.26823031762402016 0.8982362125336607
-0.6167554614342023 -0.3411268665067757 -0.3947335469349169 0.8575566859657393 -0.6403517287334017 -0.009283851852788017 0.5920280273412313 -0.3047929481019851
0.4657075522805645 0.16163974322984376 0.12552034191175432 0.8485901655439116 0.3070694417980184 0.9528611117483814 -0.42330259665771086 0.9140640406347487
0.3273608366334668 -0.12986801079335297 0.9142458854418003 -0.461651624515075 0.05457569970917131 -0.3961098837561545 0.12490332458025843 0.2038572942628869
0.269985128172473 0.6767666609639673 0.7251956633364975 -0.5268254028127957 0.9258017169302168 -0.28025414209363975 0.47379597074229785 0.7035355684642581
-0.05700513799545326 -0.35364543166762097 0.1943224113559172 0.5416449260334197 0.12193623235643969 -0.09516892358262963 -0.2799149097895792 0.6727030105433778
-0.13608803854652196 -0.41792151469806393 -0.04116227575661746 0.08482194640225948 0.40170194523852687 -0.35624950797660837 0.12899633246504405 -0.7075284312063388
0.22959898050588512 -0.4852076724940444 0.5733268687416733 0.1673674792135278 0.12156220959439867 -0.8729774203676712 0.5934099260394767 0.9782213846185523
0.739503504905832 0.7298471103711379 -0.11944342485462123 -0.410860268827564 0.6778195979209909 -0.5116402534166624 0.17631504882063886 0.4243796779265476
0.5439774241872655 -0.7903947846001425 -0.9429495764622684 -0.6492653369966348 -0.8668342299759 -0.5373428516455667 -0.3513064686415064 -0.32872927668162677
-0.17507901790747482 0.6219040474803903 -0.8216325833640521 0.7692458537017721 -0.448862965816589 -0.18143713854541965 -0.7963325262538354 0.39814580909047503
0.28686946687500203 0.3093433348808865 -0.6846634650564674 -0.6766699726412448 -0.7767299890346533 0.13524231645580032 -0.9739587180145053 -0.11161828201565549
-0.237150114670434 -0.139379697545283 -0.6787533910584282 -0.5823041125518182 -0.19590650801560572 0.14338394732354542 0.10509874751589621 0.8989153311412263
-0.6910008125203464 0.6400676790229392 -0.17687292303554458 -0.44992525237523195 0.9485509933074141 0.5468576469278219 -0.12192386105398967 -0.8987243081026155
0.6313332620405097 0.8976382121991657 -0.7722601402429656 -0.4450429603950323 -0.40641006650740286 -0.9003896675670511 0.8632961219414232 -0.011425230549374277
0.2531916958777458 0.20946022396923047 -0.33139325635147276 0.7099003486650683 0.7458755050532304 -0.22751015622887127 0.258417451804658 -0.9367610231998695
-0.8045450131673939 0.4004100740948673 0.664398215042254 -0.16371045792668548 -0.004804501169332953 -0.88670323168006 0.3312832448572578 -0.40428239618782214
-0.8325268923005165 -0.9725475018549126 -0.5203253937264516 -0.8659104578801793 -0.4079813760679014 0.6425289034921542 -0.7391314865723435 0.39330126434803514
-0.19524852906650292 0.07980319861733176 0.09829911713779937 0.012644659267170733 -0.2985192160561725 0.7701210523175441 -0.6544671463121328 -0.7980500591936699
-0.8633635635304036 -0.3639845828983932 -0.2517554689259891 0.8677474940684544 -0.5167628086307456 -0.23829635460805032 -0.30011438264933266 0.3721818180101528
-0.5094288388307768 -0.3342558647121834 -0.33516918299419274 0.08837663438546994 0.6977038132036777 -0.5043746479443059 -0.32220126701099994 -0.21716386436083868
-0.7988663304403405 0.6291358177396607 0.3189894465896306 -0.14205925039437406 0.04609034593471795 -0.2740872039687543 -0.8598138857313653 -0.6408334383378869
-0.32286252364839507 -0.8258085829579174 -0.8183645273634947 0.14562539062329627 0.9680500617139278 -0.8719581272749479 -0.816336830609004 0.6783336045872546
-0.4472067498777976 -0.40963032420837187 0.026353264163478718 -0.9266090608214803 0.24206652130802664 0.4178394927076572 -0.34347483807555856 -0.8714901308421372
00000000: 6a7b 93cb fea6 e2bf fe3e 88fc 6d7e eb3f
00000010: f840 b09f d3ca ddbf 46e3 20ec 6b46 e83f
00000020: 3222 5bde c3da e5bf 4019 19e3 5b2e 9ebf
00000030: 9091 ede7 bda5 dd3f 9e4b 0cc7 4768 e1bf
00000040: 9266 b94b 2ad2 e73f da68 79e2 3095 eb3f
00000050: 70e5 c5de 873a ebbf 705b aeea c52d bf3f
00000060: 6cbc e66d c2b3 e9bf 401c 71c4 19fc 92bf
00000070: 682b 6875 78b5 df3f e497 b5aa 3059 df3f
00000080: 90f2 2bde 4db8 c13f c074 5ddc a3d7 d5bf
00000090: 6cd3 5aeb 4100 e1bf 80da e51c 1a99 ecbf
000000a0: 5c51 00fe d576 d83f 689e 61d0 65da de3f
000000b0: 40e3 b567 fd62 b23f 14ac 5e4d 5bf7 d53f
000000c0: 86f4 1b5c 2aed ed3f 228f 3d42 dfac e4bf
000000d0: c04f 2202 c506 bd3f 6086 dee5 3653 ad3f
000000e0: 80dd 8bcb 985f 85bf 3e4d 0ac1 2d87 e43f
000000f0: 00fc 9dd8 796c bfbf 5871 3a38 66dc debf
00000100: 4a6e ea91 78a5 eb3f 2443 6333 a80b d7bf
00000110: f897 e470 a7cc d0bf 9404 b086 a2d4 d13f
00000120: ea5d 4ff4 e55f eb3f 6cef 2ab0 3dd9 dc3f
00000130: f45c 4754 21fe d0bf 5018 840b 2a91 d23f
00000140: e63f cdb5 c3d6 e13f d274 8954 6989 e9bf
00000150: 70d4 4af5 4aed bfbf eab1 49a6 3e7d eb3f
00000160: 9692 3a37 55d9 edbf d4e0 6eee bf99 da3f
00000170: 00db 8feb ac84 813f b678 2c17 a8e3 e43f
00000180: a4a9 0159 7098 d53f c044 416e 483e d73f
00000190: 9886 dfd4 3c43 de3f c2c7 7b73 df41 e4bf
000001a0: 903a 3196 8da6 ea3f 2c09 3419 8982 eebf
000001b0: e060 4e77 ba39 af3f 58b1 d173 fefa c43f
000001c0: f4e3 3569 978d d13f 7ad8 a115 887c e53f
000001d0: 401d edfb e8bc abbf d26d 3357 fc7a e83f
000001e0: 7692 3b0a 662f e53f d443 ce2c 2437 e7bf
000001f0: f0ee 2677 c1cc e2bf 7cfc 3f89 86c5 dd3f
00000200: 206c ab42 0559 bf3f 00e4 d66c 1e5a 93bf
00000210: 7c0b 0d3e ea1a e5bf 88cb 9f65 9dae cb3f
00000220: 0efe c541 bad1 ef3f 2051 d4bb e0fe ecbf
00000230: 3c6a 7f7e af2a d13f 8047 9dde 59be ec3f
00000240: 40a8 0ff3 75bc e3bf 70bf dbc7 05d5 d5bf
00000250: 180d ae7e 5043 d9bf 3a0c 16b8 1a71 eb3f
00000260: d21a 9be8 c27d e4bf 8085 b580 6903 83bf
00000270: 16df f7c2 e4f1 e23f 9c90 0948 ba81 d3bf
00000280: 20e5 a20c 27ce dd3f 58f8 7371 9cb0 c43f
00000290: 5032 bff1 0c11 c03f 88fc 1690 a627 eb3f
000002a0: d8e6 8796 06a7 d33f 2edd 1296 d67d ee3f
000002b0: 583b 3dc6 6317 dbbf 403a 1f3b 0340 ed3f
000002c0: 7c3e d5dd 7af3 d43f 20b7 93d5 839f c0bf
000002d0: fa33 4f96 8041 ed3f 5000 5c41 b38b ddbf
000002e0: 807d d09a 58f1 ab3f 10b9 1645 dd59 d9bf
000002f0: c0df 3b0e aaf9 bf3f b87f f4ed fe17 ca3f
00000300: 940e fab3 6f47 d13f a4a0 7b8e 12a8 e53f
00000310: ac66 2789 cd34 e73f 340e 79f2 c0db e0bf
00000320: 4478 19ec 2aa0 ed3f 0816 b711 afef d1bf
00000330: bc24 d455 ac52 de3f 660e 4406 5d83 e63f
00000340: e0f3 c906 c72f adbf 601a d972 20a2 d6bf
00000350: a8a6 d388 8edf c83f ba73 6bbd 2755 e13f
00000360: 001a 2b82 3637 bf3f e006 6296 fd5c b8bf
00000370: cc60 cd39 20ea d1bf ae8b c676 c886 e53f
00000380: 9090 7735 556b c1bf e811 7be1 39bf dabf
00000390: 003f 68c8 3813 a5bf 80e0 c71d e4b6 b53f
000003a0: e47f 6213 7cb5 d93f a070 7ebc cacc d6bf
000003b0: 28e3 9eaa f382 c03f 66af 20aa 12a4 e6bf
000003c0: 30de 3bd8 7f63 cd3f 3055 487b a40d dfbf
000003d0: fa3b e596 b158 e23f 786a d12c 4c6c c53f
000003e0: 402f a372 b31e bf3f da04 d457 6eef ebbf
000003f0: 3ac3 2ed0 36fd e23f 96e7 e5ee 964d ef3f
00000400: 3222 1b41 03aa e73f f4f8 c353 e85a e73f
00000410: 800b 7923 d893 bebf 1cc5 75de 884b dabf
00000420: a412 b5b9 b2b0 e53f 26bc 7761 5b5f e0bf
00000430: c017 3dd4 7d91 c63f ac04 7261 0929 db3f
00000440: 26b1 d457 4368 e13f a22b d900 ea4a e9bf
00000450: fed6 1597 a42c eebf 8076 9a19 c8c6 e4bf
00000460: 3c98 9923 1bbd ebbf acd3 d1a2 e931 e1bf
00000470: b410 6c20 ce7b d6bf ec75 2585 e609 d5bf
00000480: 806f 1040 fd68 c6bf b2b4 2551 a3e6 e33f
00000490: 160d 5c6a d04a eabf 6072 077b a99d e83f
000004a0: 1857 a4bb 2bba dcbf 088c 2a08 5539 c7bf
000004b0: 860a a059 8e7b e9bf b050 458f 387b d93f
000004c0: e0bd 9cc0 115c d23f 8c22 a3fc 47cc d33f
000004d0: c6df e55a c3e8 e5bf 54bd 55c9 47a7 e5bf
000004e0: a43d 97d9 f8da e8bf c841 1bc7 9e4f c13f
000004f0: 28d8 3079 ab2a efbf 1098 e406 0493 bcbf
00000500: e846 6059 ef5a cebf 6878 57a5 31d7 c1bf
00000510: 3ca4 1408 59b8 e5bf 4890 f73b 3ca2 e2bf
00000520: 4813 80e6 7613 c9bf 7054 43ba 675a c23f
00000530: 006c 6e63 c0e7 ba3f 8afc a315 eac3 ec3f
00000540: 1c19 69bc ad1c e6bf 2e2a 9436 6f7b e43f
00000550: c827 fe9d c5a3 c6bf 9c27 2649 93cb dcbf
00000560: 40ff da9c 875a ee3f 9aeb a39b db7f e13f
00000570: 0035 d4f3 6636 bfbf 8478 ed7a 59c2 ecbf
00000580: 5ee9 2ad0 e133 e43f 6221 a1c5 73b9 ec3f
00000590: 1622 cbe5 5ab6 e8bf 488c 0d78 957b dcbf
000005a0: d886 1a5e 9f02 dabf e06a fbfd fdcf ecbf
000005b0: b810 5030 1fa0 eb3f 0078 787c 1c66 87bf
000005c0: 007a 5af1 4a34 d03f f85d e1b5 97cf ca3f
000005d0: d03f 890f 8c35 d5bf 56ef 9def 80b7 e63f
000005e0: 5aea a24e 36de e73f a063 4184 0d1f cdbf
000005f0: ccdd 0d5a e989 d03f 32f3 d940 f2f9 edbf
00000600: d4d7 f62e d5be e9bf 347d 4e93 51a0 d93f
00000610: 7c12 a40b c042 e53f 5076 67db 76f4 c4bf
00000620: 0085 5576 e2ad 73bf 0a59 aa74 df5f ecbf
00000630: ccfa 97a3 be33 d53f dc69 7e45 c3df d9bf
00000640: 5614 ef6f 0fa4 eabf 46bf 48f0 1b1f efbf
00000650: 7cab aa70 81a6 e0bf 1e83 3bd9 89b5 ebbf
00000660: 7cad e5ea 5d1c dabf 2e79 67c6 988f e43f
00000670: deb4 4813 f7a6 e7bf b06a f610 d92b d93f
00000680: e063 775f e7fd c8bf 5079 2d80 fb6d b43f
00000690: 2020 5585 212a b93f 8028 2c70 71e5 893f
000006a0: 9c15 8c57 f01a d3bf 5447 b5e7 d4a4 e83f
000006b0: 22f2 b615 65f1 e4bf 7cd8 1947 a089 e9bf
000006c0: aa79 bd9f aca0 ebbf c4fe f2fd 854b d7bf
000006d0: c414 68f8 c21c d0bf 0ab8 8664 96c4 eb3f
000006e0: 0a76 5b28 5289 e0bf 9817 e6b4 7e80 cebf
000006f0: 7470 a2f4 1235 d3bf 583e 21b0 d3d1 d73f
00000700: ae5b 4db5 3d4d e0bf 80d7 dbb5 7264 d5bf
00000710: 0093 e571 6973 d5bf 5088 6ae2 d99f b63f
00000720: 2223 80f2 9653 e63f 1a46 3b4d d623 e0bf
00000730: 44b0 2210 f29e d4bf 90c1 a687 06cc cbbf
00000740: c2bc 631f 5090 e9bf d0e3 3d70 e121 e43f
00000750: 54c8 37b6 526a d43f d8e0 445d ff2e c2bf
00000760: a0e1 e660 2799 a73f 7c10 530e a58a d1bf
00000770: d69c fb68 9883 ebbf ca05 7b20 b581 e4bf
00000780: e820 0b93 c7a9 d4bf 74ee 111f 066d eabf
00000790: 5672 27ce 0a30 eabf 40de 1851 daa3 c23f
000007a0: 9e77 7e1f 44fa ee3f e612 04bb 14e7 ebbf
000007b0: 048d bf6a 6e1f eabf 9a5c efac e8b4 e53f
000007c0: 50a3 510f 099f dcbf 7c30 7b1b 6237 dabf
000007d0: c063 e69e 59fc 9a3f 20fa 8c0b c8a6 edbf
000007e0: 28bb 3c28 09fc ce3f 0806 0adb e1bd da3f
000007f0: 8c23 22e3 7dfb d5bf a41e 5845 3fe3 ebbf
